…
INFO: Scheduler updated, LR = [0.00036972963764972643] 
At Epoch    = 98,
Train_loss  = 0.0001709026925903827
Val_loss    = 0.0003512166996227532

INFO: Scheduler updated, LR = [0.00036603234127322915] 
At Epoch    = 99,
Train_loss  = 0.00016673128844900466
Val_loss    = 0.0003445703925529365

INFO: Training FINISH, Cost Time: 354.35s
INFO: The checkpoints has been saved!
INFO: Training finished, cleaned the data loader
##############################
##############################
INFO: Start post-processing
INFO: the state dict has been loaded!
<bound method Module.eval of easyTransformerEncoder(
  (embed): TimeSpaceEmbedding(
    (spac_proj): Linear(in_features=2, out_features=64, bias=True)
    (time_proj): Conv1d(64, 64, kernel_size=(1,), stride=(1,))
    (time_avgpool): AvgPool1d(kernel_size=(2,), stride=(2,), padding=(0,))
    (time_maxpool): MaxPool1d(kernel_size=2, stride=2, padding=0, dilation=1, ceil_mode=False)
    (time_compress): Linear(in_features=64, out_features=64, bias=True)
    (act): Identity()
  )
  (encoders): ModuleList(
    (0-3): 4 x easyEncoderLayer(
      (attn): DenseEasyAttn()
      (feed_forward): PositionWiseFeedForward(
        (fc1): Linear(in_features=64, out_features=128, bias=True)
        (fc2): Linear(in_features=128, out_features=64, bias=True)
        (act): ReLU()
      )
      (norm1): LayerNorm((64,), eps=1e-05, elementwise_affine=True)
      (norm2): LayerNorm((64,), eps=1e-05, elementwise_affine=True)
      (dropout): Dropout(p=1e-05, inplace=False)
    )
  )
  (cf): Conv1d(64, 1, kernel_size=(1,), stride=(1,))
  (of): Linear(in_features=64, out_features=2, bias=True)
)>
INFO: Test data loaded, SIZE = (200, 2)
The sequence length = 200
Begin to compute the sliding window error
131
(5,)
INFO: Inference ended!
##############################
##############################
INFO: Start post-processing
INFO: the state dict has been loaded!
<bound method Module.eval of easyTransformerEncoder(
  (embed): TimeSpaceEmbedding(
    (spac_proj): Linear(in_features=2, out_features=64, bias=True)
    (time_proj): Conv1d(64, 64, kernel_size=(1,), stride=(1,))
    (time_avgpool): AvgPool1d(kernel_size=(2,), stride=(2,), padding=(0,))
    (time_maxpool): MaxPool1d(kernel_size=2, stride=2, padding=0, dilation=1, ceil_mode=False)
    (time_compress): Linear(in_features=64, out_features=64, bias=True)
    (act): Identity()
  )
  (encoders): ModuleList(
    (0-3): 4 x easyEncoderLayer(
      (attn): DenseEasyAttn()
      (feed_forward): PositionWiseFeedForward(
        (fc1): Linear(in_features=64, out_features=128, bias=True)
        (fc2): Linear(in_features=128, out_features=64, bias=True)
        (act): ReLU()
      )
      (norm1): LayerNorm((64,), eps=1e-05, elementwise_affine=True)
      (norm2): LayerNorm((64,), eps=1e-05, elementwise_affine=True)
      (dropout): Dropout(p=1e-05, inplace=False)
    )
  )
  (cf): Conv1d(64, 1, kernel_size=(1,), stride=(1,))
  (of): Linear(in_features=64, out_features=2, bias=True)
)>
INFO: Test data loaded, SIZE = (200, 2)
The sequence length = 200
Begin to compute the sliding window error
131
(5,)
INFO: Inference ended!
##############################
shape de norm_err (200, 88, 300)
norme erreur 384.38968
erreur relative 0.147631
shape de norm_err (200, 88, 300)
norme erreur 538.6334
erreur relative 0.20687078
shape de norm_err (200, 88, 300)
…
